pkg_ta/src/Python/ckpt_600_ppo_anet_params.pkl (torch, 5063 bytes, 4 tensors)

fc.weight f4 [100, 4]
000000 4a e8 83 3e 54 fc 61 be a0 83 c6 bd 20 51 70 3e
       0.2576316 -0.22068912 -0.09693074 0.23468447
000010 97 5a 22 bf 2a 27 59 be 93 c9 58 bd e7 d7 27 3f
       -0.6341948 -0.21206346 -0.05292661 0.65563816
000020 f0 e9 03 bd f7 0c 38 be 1a 63 dc 3d ff 58 a7 3e
       -0.032205522 -0.17973696 0.107610896 0.32685086
000030 30 ff 3a 3e e4 86 47 be 30 51 15 bd 40 60 38 bd
       0.18261409 -0.1948505 -0.03645438 -0.045013666
000040 28 8d 01 bf a8 94 3f be fe 7d e0 3e 5f d6 29 3f
       -0.5060601 -0.18709052 0.43846124 0.6634273
000050 08 ac 3e be 36 9d 9a be 70 a3 ab bd b0 d8 5c be
       -0.18620312 -0.30198067 -0.083807826 -0.21567035
000060 88 1d 17 c0 d4 a2 d5 be aa db 8e 3e 79 25 59 40
       -2.3611774 -0.4172579 0.27901965 3.3929121
000070 c6 40 fa be 1c b3 9e 3e c8 08 0f 3e 88 d4 f2 3e
       -0.48877543 0.30996025 0.13968194 0.47427773
000080 0c 58 7d 3f 2c ef 9b bf 7a cd e2 be f2 47 8b bd
       0.98962474 -1.2182364 -0.4429739 -0.06800832
000090 ef 27 72 3f 8b de 7e be 53 56 74 3e 37 72 33 bf
       0.94592184 -0.24889581 0.23861055 -0.70096153
0000a0 23 1b a3 3e 23 5b 8b be 43 35 ab 3e d2 7d b6 3e
       0.3185664 -0.2721797 0.33439073 0.35642868
0000b0 8e 90 01 3f b2 67 50 3f bd e1 f1 bd 38 2e 11 be
       0.506112 0.81408226 -0.11810634 -0.14177787
0000c0 1d d0 13 3f 22 5c d6 be ac e3 a6 be e2 e3 ec bd
       0.5773943 -0.41867167 -0.32595575 -0.11566903
0000d0 bd 4a 25 3f cd 92 b3 3d 04 ca f7 3e 0f b7 df bb
       0.64567167 0.087682344 0.48396313 -0.006827242
0000e0 71 74 e5 3e 3b 54 44 be 93 27 8f 3e a9 c3 38 be
       0.448154 -0.19172756 0.2795988 -0.18043388
0000f0 da 2d 1f bf c0 08 3a 3c 3e f2 9f 3e c4 f1 43 3f
       -0.6217934 0.011354625 0.31239504 0.7654078
000100 d6 80 8f be 78 8e a8 bd c0 b1 1e bc 18 90 95 3d
       -0.28027982 -0.08230299 -0.009685934 0.07302874
000110 f6 28 e4 be 62 ba a8 be a7 a2 5f 3e 72 91 f0 3b
       -0.445625 -0.329547 0.2183939 0.007341557
000120 ee a8 de 3e bd bd 8a 3d 1a c4 6f 3e 70 25 8f 3e
       0.43488258 0.06774471 0.2341465 0.2795825
000130 b4 29 3a 3e cc cd 7d 3e ae 15 ed be a4 db 80 3e
       0.18179971 0.24785537 -0.46305603 0.25167572
000140 e2 ff b3 be 80 27 c1 be 80 18 f9 3c 38 7f ae bd
       -0.3515616 -0.3772545 0.03040719 -0.08520359
000150 13 d8 3e 3f 86 c7 28 bf 30 2a 1f bf 0e 90 60 be
       0.74548453 -0.6592945 -0.6217375 -0.21929953
000160 a6 6b dd bd c2 51 31 3e fa 77 8b 3e 35 f2 bf be
       -0.10811548 0.17316344 0.27239972 -0.37489477
000170 e1 9a b5 3f f1 07 85 be a7 86 c3 be e5 64 cf bf
       1.418789 -0.2598262 -0.3818867 -1.6202666
000180 5c 94 2e 3e e8 6b b7 3d 70 ca 59 be 94 fd 1a be
       0.17048782 0.08956128 -0.2126863 -0.15135795
000190 ce 9a fa 3d af cb bb be 5f 12 83 3e 95 a3 1d 3f
       0.12236558 -0.36678836 0.25599954 0.6157773
0001a0 a4 f7 91 3e 27 01 cd be 14 42 e3 3e 5f bf 81 be
       0.28509247 -0.40039942 0.4438635 -0.25341317
0001b0 a2 8b 28 3f 35 96 12 3e ea 7c 8e 3e 1a 02 09 3f
       0.6583806 0.14315112 0.27829677 0.5351883
0001c0 ca 3c fc 3e fe 5a d9 be 75 52 c8 3d d8 36 0f 3f
       0.49265128 -0.42452234 0.097813524 0.5594306
0001d0 94 74 b9 3e 7c 09 9f 3e a4 45 b9 be c0 58 b8 be
       0.36221755 0.31061924 -0.36185944 -0.3600521
0001e0 40 97 ae bf ea be dc 3e 48 a8 e3 3e af 14 35 be
       -1.3639908 0.43114406 0.44464326 -0.17683671
0001f0 3c 13 51 3f 7a b3 06 bf e1 06 fc bd 74 2c f6 3d
       0.81669974 -0.5261761 -0.123059995 0.120201975
000200 f0 7f 93 3e fa a9 ed 3e 66 fc 9e be 30 38 de 3d
       0.28808546 0.46418744 -0.3105194 0.10850561
000210 21 cc d0 3e 5b b9 7b 3e 4a 5c be 3e 53 57 96 3e
       0.40780738 0.24582426 0.37179786 0.29363498
000220 9f 17 2e 3f 29 b8 fa 3d 16 c0 88 be 46 48 a1 be
       0.6800479 0.12242157 -0.2670905 -0.31500453
000230 e4 9b 6a be 30 7b 6e bd 70 ea 9c be 2c 51 3b 3e
       -0.2291103 -0.05822295 -0.30647612 0.18292683
000240 28 07 d3 3e 53 aa 17 3e 2d ae 37 3e d1 38 21 be
       0.41216397 0.14811067 0.17937537 -0.1574433
000250 31 39 36 3f a7 a0 94 3e c8 74 e3 bd 5c be 17 3f
       0.7118102 0.29028818 -0.11106259 0.5927484
000260 1c f9 8c 3f 91 33 c9 be ed 1e ca be 7c be 55 bf
       1.1013522 -0.39297155 -0.3947672 -0.8349378
000270 3d 68 52 3c fa c3 7a bc cf 11 af 3e 58 d2 f2 be
       0.012842235 -0.0153055135 0.34193274 -0.47426105
000280 d2 4d bf be f0 fd 44 3e 44 ed 23 3e 0e cf a5 3e
       -0.3736406 0.19237494 0.16008478 0.32384533
000290 52 78 ec be 3f 33 bb be 4c 53 4c be 37 47 bf 3e
       -0.46185547 -0.36562535 -0.1995365 0.3735902
0002a0 d8 02 cc be 80 59 69 be d0 cd 1c be 04 f3 5a 3e
       -0.3984592 -0.22788048 -0.15312886 0.21381766
0002b0 71 f9 b0 3e ae 32 09 be 3b 77 bb 3e aa 77 c1 3e
       0.3456531 -0.13398239 0.36614403 0.3778661
0002c0 0c 5e b3 3e a0 a4 ce 3c e9 85 b0 be 04 3d c4 3e
       0.3503269 0.025224984 -0.34477165 0.383278
0002d0 34 b2 ab 3e 03 f1 df be b0 d6 bb be ba b7 fb bd
       0.33534396 -0.43738565 -0.3668723 -0.122909024
0002e0 ec 1d a5 be 6c 3d eb 3e 40 51 dd be 2e 8c c7 be
       -0.3224939 0.459453 -0.4322605 -0.38974136
0002f0 ee 94 36 3e 55 c0 2f 3d ea 7e 35 3e a1 dc f3 be
       0.1783025 0.04290803 0.17724195 -0.47629264
000300 2d 50 11 bf 9a 15 6d be 4f 97 ec 3e 39 88 91 3d
       -0.56762964 -0.23152772 0.4620919 0.071060605
000310 dc ff 31 3e bf 9d 7c 3e 18 a1 2a 3f a4 da ae be
       0.17382759 0.2466955 0.6665206 -0.34151185
000320 10 49 27 3f 64 86 44 be d8 82 c1 3e bf 1c 22 bf
       0.6534586 -0.19191891 0.37795138 -0.63325113
000330 7f 10 91 be 58 d7 89 be ef fb 18 3a 6a c1 db 3e
       -0.28332898 -0.26922107 0.0005835881 0.42921
000340 0d a6 26 3e 61 15 88 3e 02 b5 b3 3d 67 8d 78 bd
       0.16274281 0.2657881 0.08774759 -0.060681727
000350 d8 0b 41 bf f9 bc 04 3e 29 2d 0d 3f b8 ae 44 3f
       -0.754087 0.12962712 0.55147034 0.768291
000360 63 f0 78 be d4 69 23 be 4a 1d 5c be 8e 64 85 3f
       -0.2431045 -0.15958339 -0.21495548 1.0421312
000370 57 49 b9 bf 41 06 76 3f 87 20 9f be c5 8c 13 bf
       -1.4475507 0.9610329 -0.31079504 -0.5763667
000380 5f 9a 29 3f 6b 8b 2b bf 03 b7 e2 3b 75 bb e3 3d
       0.66251177 -0.6700961 0.0069187894 0.11119739
000390 56 c6 ca 3e 0c 1d f2 3e 98 c9 cf bd 90 fa c6 be
       0.39604443 0.47287786 -0.10145873 -0.3886304
0003a0 f9 d5 5a 3f ee 55 33 bf 4d a5 86 be 67 77 1f 3e
       0.85482746 -0.70052993 -0.2629799 0.15572892
0003b0 49 cc 1a bf 79 01 8a bd 88 44 03 3f c5 2b 83 bc
       -0.60467964 -0.06738562 0.51276445 -0.016012082
0003c0 76 0d a3 be db c9 d6 bd 1d 1a 1c 3e 53 75 ba 3c
       -0.31846207 -0.104877196 0.15244336 0.022761023
0003d0 d6 cf 81 be 00 4a 3b 3c 66 9f f0 be 4a ee b4 be
       -0.2535388 0.011431217 -0.4699661 -0.3533805
0003e0 2b 47 75 bf 20 27 9f 3e 36 7a dd 3e 7f 80 32 3e
       -0.9581172 0.31084538 0.43257302 0.1743183
0003f0 96 80 7e be ec 75 5c be 39 5e f7 3d 7a 8b 25 3e
       -0.24853739 -0.21529359 0.120785184 0.16166487

fc.bias f4 [100]
000000 08 84 82 be 4d f3 cf 3e f2 15 71 bd e2 7e cd be
       -0.25491357 0.4061531 -0.05885882 -0.40135866
000010 de 6f b8 bd 96 11 e7 be 49 f9 8b be 0e 5c b5 be
       -0.09005712 -0.45130605 -0.27338627 -0.35421795
000020 48 90 c2 3e 1f 61 b2 bd f3 6e 2a be 3d 1c c6 3e
       0.38000703 -0.08709931 -0.16643886 0.3869342
000030 10 ce 92 3e 00 47 ad be 05 8b 37 3e cb a4 62 3e
       0.28672838 -0.3384323 0.17924125 0.22133176
000040 4a 8c cb be 5b fc b0 3e a6 e5 6f be d0 37 48 be
       -0.3975547 0.34567532 -0.23427448 -0.19552541
000050 10 dd d2 be db 4b 8e 3e e3 45 84 3e c8 a6 c3 3e
       -0.41184282 0.27792248 0.2583457 0.38213181
000060 70 bc 05 3d d1 b1 65 3e 5e 03 3b be 6a 14 90 be
       0.03265041 0.22431113 -0.18263003 -0.28140575
000070 9d 1f b1 3d 40 a3 36 bd d2 5f d8 bd 71 b7 8f 3d
       0.08648608 -0.04458928 -0.10565151 0.070174105
000080 c0 96 29 3c 7a 45 76 3e 0c 47 63 3e 76 39 ce be
       0.010350883 0.2404994 0.22195071 -0.40278214
000090 e7 59 81 3e b4 9f e0 3d 4e 1a c8 3e a4 6b bc 3e
       0.25263903 0.10967961 0.3908257 0.36800873
0000a0 90 9a c9 be 10 7d eb 3e 6e c3 fb be 36 94 f3 3d
       -0.39375734 0.45993853 -0.4917254 0.11893503
0000b0 d9 14 d4 3c 7e ea cb 3e aa 6f 8a be 8b 85 a6 3e
       0.025888847 0.3982734 -0.27038318 0.3252376
0000c0 92 a2 0a be 4b a0 86 be 18 17 fd 3d dd 88 a9 3e
       -0.13538578 -0.2629417 0.123579204 0.3311223
0000d0 5d 72 0a 3f f6 71 76 3d bc fa dd 3e 17 ae ce 3e
       0.54080755 0.060167275 0.43355358 0.40367195
0000e0 a3 6f 20 be d4 76 c5 be 18 ac 52 3e fc 01 8f bd
       -0.15667586 -0.3856722 0.20573461 -0.069828
0000f0 f0 40 19 3e 74 3f db be c4 01 bd 3e 27 57 6a 3e
       0.14966178 -0.42821848 0.3691541 0.22884808
000100 c9 cf 4c bd e2 77 82 3e 6c 11 a5 be f6 f5 8e be
       -0.050002847 0.25482088 -0.32239854 -0.27922028
000110 f1 7c d7 3d 74 ec 93 be df 0e d3 bd 22 5f 6c be
       0.105218776 -0.28891337 -0.10305571 -0.23083165
000120 98 9c dd 3e 6e f1 eb 3e c4 f6 cf 3e 4b 8d c6 3e
       0.43283534 0.46082634 0.40617955 0.38779673
000130 48 2c f5 be 8e e1 93 3e 5d 1b 34 3e 9c 52 a5 be
       -0.47885346 0.28883022 0.17588563 -0.32289588
000140 93 d8 54 3e ee e8 8a be 83 c8 df 3d c0 ae 3f 3e
       0.20785742 -0.27130836 0.109269165 0.18719006
000150 87 5d e8 3e 7f 83 96 be 14 6a c9 be 20 fb f4 3e
       0.45383856 -0.293972 -0.39338744 0.47847843
000160 b3 c3 6c 3e 70 c6 82 3e 07 0f ed 3c 58 3a 35 be
       0.23121528 0.2554202 0.02893783 -0.17698038
000170 73 b8 c1 3e 2e 7f df be b0 30 85 3e 73 a4 71 3e
       0.37836036 -0.43651718 0.26013708 0.23597889
000180 18 c7 df 3e 88 ad 7f be bd 47 a7 be 31 c9 63 3e
       0.43706584 -0.2496854 -0.3267192 0.22244717

mu_head.weight f4 [1, 100]
000000 13 a5 a2 bd c3 d0 05 be 88 c6 bd bd 17 a1 46 bd
       -0.07941642 -0.13067918 -0.092663825 -0.04849347
000010 96 8b 61 bd fa 8f 72 bd d1 bc 8e c0 05 59 b5 bd
       -0.05506476 -0.059219338 -4.460549 -0.0885487
000020 16 0d 80 bc cf 2f 3d 3d 0f a0 46 bd 9d 5f c4 3e
       -0.01563124 0.046188172 -0.048492488 0.38354197
000030 87 5f ed 3d a4 e7 d1 3d ef 53 a5 3d e8 d8 e8 bd
       0.11590486 0.1024926 0.0807265 -0.113694966
000040 c8 c1 a0 bd d2 d6 42 bd c8 92 33 3e da 92 4c 3c
       -0.07849461 -0.04756815 0.17536461 0.012486184
000050 93 84 ca bd c8 40 2c be ab ca 0a 3d 3f b0 63 bf
       -0.09888568 -0.16821587 0.033884685 -0.88940805
000060 30 fd 22 bd f8 be 9b bd 78 94 cc 3c 64 97 c3 3e
       -0.03979224 -0.07604784 0.02497314 0.3820144
000070 23 2a 16 bd 1a d5 7a bd 9c 6a 12 3d 7b e0 c4 3e
       -0.03666128 -0.061238386 0.035746202 0.38452515
000080 33 ce 35 3d 8b 6a 2a 3d c9 80 ad 3e 97 89 9e bd
       0.0443861 0.041605514 0.33887318 -0.07741087
000090 bd a0 e2 3d 6c d5 cc 3e e2 b4 09 bf df 59 e1 3d
       0.11065815 0.40006578 -0.5379163 0.1100347
0000a0 20 5f 64 3d 06 b1 d5 bd ad 8f 4c bd f7 de e5 bb
       0.05575478 -0.10434155 -0.049941707 -0.007015105
0000b0 fa fd 4f bd da ef 0c 3e 68 1a 92 bd 91 5e 09 3e
       -0.05077932 0.13763371 -0.07133943 0.1341498
0000c0 6d 7a d2 bd ff dc 2d 3d 11 47 1b 3d 01 ef 5a bd
       -0.10277257 0.042447086 0.03790957 -0.053450588
0000d0 9d e2 d1 3d 89 42 d9 bd 75 ea 3a bd e0 bc 4b 3e
       0.10248301 -0.10608394 -0.045633752 0.19896269
0000e0 91 72 5a bd cd 7e 2f bd 71 33 06 3d 8f a6 f1 bd
       -0.053331915 -0.042845536 0.032763902 -0.11799347
0000f0 3a d8 b7 bc 77 7d 0d bd 45 99 9c bc 79 6e b8 bd
       -0.022441972 -0.03454348 -0.019116053 -0.09005446
000100 29 01 de 3e cf cc 7f bf de 8f 32 bf 61 53 2f be
       0.4336026 -0.9992189 -0.69750774 -0.1712165
000110 cc 46 cd 3e 9a 3d bb ba d0 6e 99 3d 8e 1e e0 3b
       0.40093076 -0.0014285326 0.07491839 0.00683958
000120 09 44 77 bd 82 3e 68 bd 3a a7 26 3e 55 6a 9d bc
       -0.060367618 -0.056700237 0.1627473 -0.019215742
000130 80 fa 3a 3c 95 d7 81 bd 33 cb 87 3d 8c 6c ed bd
       0.011412263 -0.06339947 0.06630554 -0.11592969
000140 1d 3b 49 3e f3 28 bc 3c b4 c5 98 bd b2 42 07 3e
       0.19651456 0.022968745 -0.07459584 0.13209036
000150 30 8c 51 3d ba 76 9f bc d3 f5 63 bd af 49 a9 3d
       0.051159084 -0.019465793 -0.055654358 0.08266007
000160 61 92 86 3d 4d 6d 19 3e e2 90 6f 3d c8 3d 8f 3d
       0.06570888 0.14983101 0.05848778 0.06994206
000170 cb ae 9f bc ed 57 fd 3c 3d 5e 15 bd 92 5e ec 3d
       -0.019492527 0.030925715 -0.036466826 0.11541475
000180 44 7c 80 3c 67 5d d3 bc 37 03 ed 3a f6 3c 0a 3e
       0.015684254 -0.025801374 0.0018082623 0.13499817

sigma_head.weight f4 [1, 100]
000000 cd d4 f2 bb 9e 74 84 be 7d 31 36 3e fa 13 5a bd
       -0.0074106217 -0.25870222 0.17792316 -0.053241707
000010 87 00 54 be cd 08 6e 3d 68 74 bd 3f a7 a4 6e bd
       -0.20703326 0.05811386 1.4801149 -0.058262493
000020 51 03 88 bf f2 89 a1 3e 59 b6 cd 3d 3d 98 a6 bc
       -1.0626012 0.31550556 0.10044546 -0.020336265
000030 6a f3 bf bf 53 1d 3b 3e 76 6d 1b 3e 03 ae 28 be
       -1.4996159 0.18272905 0.15178475 -0.1647263
000040 37 64 3a 3d fd c1 fe 3d b4 5d f0 be 4d 35 73 3c
       0.04550573 0.12439344 -0.4694649 0.014844251
000050 ed 1e 15 bd 4c d6 8c bf 6f 1f 62 be 51 65 58 3f
       -0.036406446 -1.1002898 -0.22082303 0.84529597
000060 b0 c3 c5 3d cd b7 94 bd f5 04 4e 3e e3 13 8e be
       0.09656465 -0.0726162 0.20119078 -0.27749547
000070 11 55 83 3e 77 32 a1 3d 9b 6f 3a be 80 2a d9 bf
       0.25650838 0.078709535 -0.18206637 -1.6966095
000080 23 e0 32 bd db c7 52 be 57 70 c7 be cd b8 32 ba
       -0.043670785 -0.20584051 -0.38952896 -0.00068176986
000090 8d 0e fc 3c 55 29 00 bf 4e d1 50 3e 46 4b 02 3d
       0.030768657 -0.5006307 0.20392343 0.031810068
0000a0 ba c1 02 bd 4d 29 1e be 1d 79 a6 3d bd 3f 81 3d
       -0.031923033 -0.15445442 0.08128569 0.06310985
0000b0 d8 ba 1f 3d f1 80 c7 bf e0 7c c1 3d b1 1f a2 bc
       0.038996547 -1.5586225 0.09447646 -0.019790502
0000c0 3d 6a 90 be 8e 74 9a be 84 3c f6 3d f3 c6 95 be
       -0.28206053 -0.3016705 0.12023261 -0.2925335
0000d0 d2 de 28 be c9 52 8d be 85 a1 85 bd 8f 73 1f bf
       -0.16491249 -0.27602223 -0.06524948 -0.62285703
0000e0 65 b9 89 bf 4d d2 05 bc 08 39 6a bf 9d 27 bd be
       -1.0759703 -0.008167815 -0.9149327 -0.36944285
0000f0 89 51 f5 3d cd 62 b2 bc d3 06 73 be 1f e6 6e be
       0.11978442 -0.021775628 -0.23733072 -0.23329972
000100 a1 c0 c9 be 0c 3c 99 3f 61 3f 05 3f 87 b0 43 bf
       -0.39404777 1.197145 0.52049834 -0.76441234
000110 47 b1 13 bf 0a 6e 31 3d b4 9f 2a be 31 fe cf bd
       -0.5769238 0.043317832 -0.16662484 -0.10155905
000120 aa 07 e6 bd 58 5b 64 be 48 9a 89 3d 04 b6 06 be
       -0.112319306 -0.2230047 0.0671888 -0.13155371
000130 52 34 92 bd 7e cc 8b be 5b 65 09 bb 3f 49 9d be
       -0.071388856 -0.27304453 -0.0020964954 -0.30719945
000140 8c 32 49 3e 2f 39 8f bd a2 6b 31 be c6 57 f7 3d
       0.19648188 -0.06993329 -0.17326215 0.12077288
000150 bf 70 b1 bd 9a a4 2f 3d 2d aa 2a bd 8a f0 8d bc
       -0.08664083 0.042881586 -0.0416662 -0.017326612
000160 4e d8 70 bd 7a 3d bf 3d 02 c5 be bd 70 b2 a3 bd
       -0.058800034 0.093378976 -0.0931492 -0.079930186
000170 71 5c 9b bf 6d 06 64 bd 86 fe 9e be c3 5f eb 3d
       -1.2137586 -0.05567019 -0.3105356 0.114928745
000180 eb 35 77 be 92 74 8f 3d 9c 3e a4 3e 7b 24 af bd
       -0.24141662 0.07004656 0.32079017 -0.0855188
