pkg_ta/src/Python/ckpt_3000_ppo_anet_params.pkl (torch, 5063 bytes, 4 tensors)

fc.weight f4 [100, 4]
000000 d5 5b 47 be aa ae c4 be 64 08 23 3e d8 a7 20 3e
       -0.19468625 -0.38414508 0.1592117 0.15689027
000010 ab 2e 84 be f2 c0 2a be d2 f8 95 be 9c d9 04 3e
       -0.25816855 -0.16675165 -0.29291397 0.12973636
000020 69 cc 48 be 47 5a 14 3f 1c bb b5 3e 70 a1 50 3d
       -0.19609226 0.5795025 0.35494316 0.05093521
000030 2a 94 1f bf 5e 13 c8 be 20 e9 60 bd 58 17 10 be
       -0.62335455 -0.39077276 -0.054909825 -0.14071405
000040 53 b3 3a 3e a2 9a d6 be 4e 99 f0 3e 34 d0 c8 be
       0.1823247 -0.4191485 0.46991962 -0.39221346
000050 28 7c ba 3e 2e 3f 19 be fe ae 83 3e 1c 86 47 3e
       0.3642285 -0.14965507 0.25719446 0.19484752
000060 80 75 ab 3c 00 f0 be 3d 96 68 c2 3e dc ac 03 3e
       0.020930052 0.0932312 0.37970418 0.1285891
000070 e3 86 96 3e 32 d8 c5 be 26 3e b6 3e f0 36 30 3e
       0.29399785 -0.38641506 0.3559429 0.17208457
000080 92 da e7 3e 03 ce b9 3e 14 95 79 3e 70 1e eb 3e
       0.45283943 0.36289987 0.24373275 0.4592166
000090 af 64 a6 bd bb 9c b0 be 2c d1 00 be 20 07 9c be
       -0.081246726 -0.34494576 -0.12579793 -0.30474186
0000a0 bd e6 1a 3f 39 89 43 bb 80 a0 88 be 44 e2 dc 3e
       0.6050833 -0.002983643 -0.26684952 0.43141377
0000b0 06 31 5d 3f d3 9c 01 3e 90 51 b1 bd d0 2e 84 bd
       0.8640293 0.1265748 -0.08658135 -0.06454241
0000c0 2a 0a 52 3e 89 15 21 bf ee 36 d1 be ae 7e cc 3e
       0.2051169 -0.62923485 -0.4086222 0.399404
0000d0 a9 62 01 3f df 3f c7 bd 70 47 ca be c0 d4 5f 3c
       0.5054117 -0.09728979 -0.39507627 0.013661563
0000e0 a2 c5 52 bf f3 c7 c2 be 00 9b 7a 3e 40 a6 62 3e
       -0.82332814 -0.38043174 0.2447319 0.22133732
0000f0 a0 28 70 bd f0 79 61 3d 74 55 0b 3e a8 a8 c8 be
       -0.058632493 0.05504793 0.13606817 -0.39191175
000100 90 96 2d be 80 5f a0 3c 72 13 92 be a4 9b 5f be
       -0.16951966 0.019576788 -0.2853046 -0.21836716
000110 39 07 17 3f c4 49 e1 3e 80 91 e5 3b 00 29 47 be
       0.58995396 0.4400159 0.0070058703 -0.19449234
000120 e4 a9 2e 3e 04 1e 77 be 48 5b f0 bd b8 80 f1 3e
       0.17056996 -0.24132544 -0.117361605 0.47168517
000130 56 5c 0a 3e de ec eb bc 54 9a 2c 3e e0 b4 f9 bd
       0.13511786 -0.02879947 0.16855747 -0.12192702
000140 56 87 fe 3e 85 c1 18 bf f4 d6 0c be 28 04 b1 bd
       0.49712628 -0.5967029 -0.13753873 -0.08643371
000150 39 9c cb be 96 12 b4 be 26 a8 9e 3e 36 77 8c 3e
       -0.39767626 -0.3517043 0.30987662 0.274347
000160 21 46 4a 3e b1 48 be 3e be bf b4 be 0a a7 98 be
       0.19753315 0.37164834 -0.35302538 -0.2981494
000170 3b a4 6c 3e e0 17 cd bd 36 4a e9 be 6e 31 b1 be
       0.23109524 -0.100143194 -0.4556443 -0.34608024
000180 f4 36 3e bf 1b c2 1f 3f fc dd 67 3e 3e 0b c6 3e
       -0.743026 0.62405556 0.22643274 0.38680452
000190 01 81 6a bf fd 85 36 bf 9c e0 a7 be 20 19 5b 3d
       -0.91603094 -0.712982 -0.3278855 0.053490758
0001a0 41 e8 a0 bd 84 8e c4 be 86 5c ba 3e d4 1c 25 be
       -0.07856799 -0.3838998 0.36398715 -0.16124278
0001b0 5f 47 85 be b8 75 10 3e c0 f3 09 be 18 34 a3 3e
       -0.26031014 0.14107406 -0.1347189 0.31875682
0001c0 e8 0a f4 3d c0 1a 4a 3c 48 f7 d6 3d ee 5c c0 be
       0.11916143 0.012335479 0.10496384 -0.375709
0001d0 cb 5d ac be 7f 59 86 be 24 db 90 be 70 94 b5 3d
       -0.33665308 -0.26240155 -0.2829219 0.08866203
0001e0 e0 93 cc 3d b0 bb 54 be 6a e2 a6 3e 08 70 8e be
       0.099891424 -0.20774722 0.32594615 -0.27819848
0001f0 78 bc ce 3d 14 33 12 be ba 0f de be a0 b1 a6 be
       0.10094541 -0.14277297 -0.43371373 -0.32557392
000200 ab 20 12 3f b2 73 e9 3e 70 4c 9e be 98 a8 1f be
       0.570811 0.4559608 -0.30917692 -0.15591657
000210 6e 3d 8f be 48 3e f9 3b 56 5c dd 3e bc 6f 27 3e
       -0.27976555 0.0076063015 0.4323451 0.16351217
000220 2b 29 07 bf ca da da 3e 64 73 d4 3e c8 7e d1 bd
       -0.5279719 0.42745048 0.41494286 -0.1022926
000230 df 25 33 bf b8 37 a9 be 60 bc 83 3d d0 38 29 be
       -0.6997966 -0.33050323 0.06432414 -0.16525578
000240 eb 5e 61 bf 42 22 96 be 00 d1 dd 3c 40 b9 db bc
       -0.8803546 -0.29323012 0.027077198 -0.026821733
000250 f9 4f 7b 3f 61 d8 0d 3f e8 d4 03 be d6 22 fa be
       0.98168904 0.55408293 -0.12874186 -0.48854703
000260 67 9c 43 bf 99 3d 86 3e 0e 05 e4 3e 80 97 f8 bb
       -0.76410526 0.2621887 0.44535106 -0.0075864196
000270 ab c6 70 bf 5b 47 64 3c 8a 81 d0 3e 38 6f a9 be
       -0.94053143 0.013933028 0.4072383 -0.33092666
000280 a2 ed db bd b9 e7 04 bd ae fe 91 be c6 5f ed be
       -0.10738684 -0.03244755 -0.28514618 -0.46362132
000290 36 98 b9 3d 1b 70 43 bf 10 84 00 be 84 ee 87 be
       0.09062235 -0.76342934 -0.12550378 -0.2654916
0002a0 a5 8e 95 3f e8 6f 31 3f 30 70 6d 3e f4 5a ad be
       1.1684157 0.6931138 0.23187327 -0.33858454
0002b0 b6 dc 63 3f fb 12 fc bc 8a fc 8d be 60 f9 05 bd
       0.89008653 -0.03077077 -0.27731735 -0.032708526
0002c0 9e d0 72 bf 7d 94 f2 be e2 f3 8e 3e 8c 2a 66 be
       -0.94849575 -0.47378913 0.27920443 -0.22477168
0002d0 0d b3 e0 3e ae 2b 9b 3d 78 2f b3 bd 14 f0 1f 3e
       0.43886605 0.075766906 -0.08749288 0.15618926
0002e0 b4 a2 b0 3d df 44 b6 be 94 f4 a7 be 98 2a 95 3e
       0.08624783 -0.3559942 -0.32803786 0.2913406
0002f0 ed f7 09 3f 95 ae f7 3e b8 67 97 3e 6c c1 ff 3e
       0.5389393 0.48375383 0.2957132 0.49952257
000300 9e f0 68 3f 5f 13 39 be 48 7e e9 3d 90 5a 2f bd
       0.9099215 -0.18073796 0.11401039 -0.042810977
000310 67 5f 3b 3e db 9d 2f be 6c e7 0e 3e 68 8b eb be
       0.18298112 -0.17150061 0.13955468 -0.46004796
000320 dc 26 84 3f 74 0f 2c 3f d0 27 b8 bd 10 a1 cb be
       1.0324359 0.6721108 -0.08991969 -0.39771318
000330 a1 9c 2c bf df c5 05 bf 80 d5 f7 bb e0 69 64 3d
       -0.67426497 -0.5225505 -0.007563293 0.055765033
000340 da 5e a9 3d 40 28 95 3e 40 c6 b9 bd cc 1c 12 3e
       0.082700446 0.2913227 -0.09071016 0.14268798
000350 ec 66 d1 be 87 69 f8 3e e4 79 44 3e a0 03 8e bd
       -0.40898836 0.4851801 0.19187123 -0.06934285
000360 f6 89 a6 3e 44 42 a6 3d 20 9d af 3d e4 24 17 be
       0.3252713 0.08118108 0.08574891 -0.14760166
000370 be 8b 6b bd be 67 27 3c ae 91 95 be 00 73 ea 3b
       -0.057506315 0.010217605 -0.29212707 0.0071548223
000380 9f 9c af 3d 13 e7 27 bf d8 e9 b6 3d b8 f2 29 be
       0.08574795 -0.65586966 0.08931321 -0.16596496
000390 a7 11 2f bf 9d b5 0b bf e0 2c cb be 28 fc ec 3d
       -0.6838631 -0.54573995 -0.39682674 0.115715325
0003a0 d8 62 63 3f 70 0d 34 3f 40 02 fb 3e d4 a9 49 3e
       0.888227 0.70333004 0.49025154 0.1969369
0003b0 45 ed 86 3e e0 b4 21 be 42 a1 d3 3e 4c bf 43 be
       0.26352897 -0.15791655 0.41333967 -0.19115943
0003c0 60 21 0b be 30 66 2a be 4a 9c ab be e4 4c c5 be
       -0.1358695 -0.16640544 -0.33517677 -0.38535225
0003d0 94 bc 72 be 0b f9 f5 3e 58 0f 7f be 40 69 e8 be
       -0.2370475 0.48041567 -0.24908197 -0.453928
0003e0 ca ab 98 bd 8e a4 b4 3e 80 fb f6 3d 90 74 01 bd
       -0.07454641 0.35281795 0.120596886 -0.031605303
0003f0 93 ed a8 be db 37 91 3f ee fd f5 be 92 0f 91 3e
       -0.32993755 1.1345171 -0.48045295 0.28332192

fc.bias f4 [100]
000000 6a d7 42 3e ae 44 bd 3e 03 86 9e 3e 8a bd c2 be
       0.19027486 0.3696646 0.30961618 -0.38035232
000010 ad 6e d4 3e e4 66 10 3f a4 b8 81 be 23 5d 92 3e
       0.4149069 0.56407 -0.25336182 0.28586683
000020 cd 62 aa 3b b7 41 bd 3e d3 51 4c 3e 4e 27 e0 be
       0.0051997663 0.369642 0.19953088 -0.43779987
000030 a6 9b 26 bf d4 53 18 3f 83 a1 ac bc 06 00 e1 be
       -0.6508125 0.5950291 -0.021073109 -0.4394533
000040 4a bf e5 be af 01 85 be a3 8a c0 3e 42 fc 7e 3e
       -0.44872504 -0.25977847 0.3760577 0.24900916
000050 3c 4b fb be 68 78 38 be 99 09 bb 3e ee 10 c6 3e
       -0.49080837 -0.18014681 0.3653076 0.3868479
000060 d6 b5 0e bc 5e e1 6a bb d3 32 33 3f e7 06 0e 3f
       -0.008710345 -0.0035839896 0.69999427 0.5547928
000070 b2 cd b5 be f5 66 1c 3f 74 b8 d1 be 84 f6 a8 be
       -0.35508496 0.610946 -0.4096104 -0.33000576
000080 07 e4 db 3b a6 c9 c2 3e 46 06 ce 3e f8 6c 83 bc
       0.0067105326 0.3804447 0.4023916 -0.016043171
000090 c3 40 9d 3e b5 c4 69 3c e4 86 cf be 9c a2 95 be
       0.30713472 0.01426809 -0.405326 -0.29225624
0000a0 6a a8 b7 3e 29 2e 99 be 6b 19 21 3c 59 95 92 be
       0.35870677 -0.2991803 0.00983272 -0.28629568
0000b0 e2 b1 0d bc 5e 68 20 3f 31 5e bd be 7b 6d 8e be
       -0.008648368 0.6265925 -0.36985925 -0.27817902
0000c0 20 e9 c6 be 1e 8a f2 3e 07 04 6f 3c 0a d6 8d bb
       -0.38849735 0.47371 0.014588363 -0.004328494
0000d0 d9 1f 0f 3f f7 c2 d6 3e 14 e0 cf 3e 8a 3b ff 3e
       0.5590797 0.4194562 0.40600646 0.49850112
0000e0 b8 de 85 be 55 72 f4 bb a4 e8 13 3c 28 98 1e 3f
       -0.26146483 -0.0074599185 0.009027634 0.6195092
0000f0 96 99 ab be 12 de 0b 3f fe 03 15 3f d7 4f 7a 3c
       -0.33515614 0.5463573 0.58209217 0.015277824
000100 11 3c ec be 44 5d 88 3e a3 6a dc 3b 62 df de 3e
       -0.46139577 0.26633656 0.0067265793 0.43529803
000110 85 dd ef 3e 2d ef d6 3e 39 0b a8 3e d0 4d ce be
       0.46848693 0.41979352 0.32821062 -0.4029374
000120 fd 8d 17 bf 66 ee 10 3c d1 c1 75 3c 19 1d 4a 3c
       -0.5920103 0.008845901 0.014999823 0.012336039
000130 da 67 32 3f 14 9f 86 3e 8d 39 17 bf c3 33 fc be
       0.69689715 0.26293242 -0.5907219 -0.4925824
000140 e3 6c be 3e 7e b0 b2 bb c1 b2 f6 3e b9 5a 1b bc
       0.3719245 -0.0054531684 0.48183253 -0.009482079
000150 78 d6 2c bc dc 11 73 3b 37 68 fc 3e 06 78 e3 3e
       -0.01054918 0.0037089502 0.4929826 0.44427508
000160 9f 36 02 bf 3c 86 ed be b9 fb 50 bc ed 91 e8 3e
       -0.50864595 -0.46391475 -0.012755328 0.45423833
000170 83 18 e1 bb 34 47 45 bc 82 b4 e1 be 97 1e e5 3e
       -0.006869377 -0.012040902 -0.4408303 0.447499
000180 86 07 eb 3e 08 3e d0 39 dd 4e cb bb 2a 8d 83 be
       0.45904177 0.00039719068 -0.0062044696 -0.25693637

mu_head.weight f4 [1, 100]
000000 56 ab 55 be e7 20 09 be c5 24 1e 3e 87 cb 8d 3e
       -0.2086614 -0.13391457 0.15443714 0.27694342
000010 c4 f5 fe 3d be b5 1d bd ed 5e b6 3d d3 a1 f6 3d
       0.1244922 -0.0385034 0.089048244 0.12042584
000020 4d 3f 22 bf 70 4f 21 be 59 90 82 3e 5a 0b 9b bf
       -0.6337784 -0.15752959 0.25500754 -1.2112839
000030 d1 0b 61 3f 85 91 0d be ea 27 48 3f 67 a5 67 3d
       0.87908655 -0.13825043 0.78185904 0.056554224
000040 23 5d 8d bd 58 5c 80 3e 97 d8 86 bd b3 34 e4 bd
       -0.0690253 0.25070453 -0.0658428 -0.11142864
000050 63 64 c8 3e 3e dd f3 3e bc 43 c7 3d 1d cd af bd
       0.3913909 0.47629732 0.09729716 -0.08584044
000060 62 0d 89 be 99 03 08 bf dc c1 90 bd ac ae 2e bd
       -0.26768023 -0.5313049 -0.07068226 -0.04264705
000070 18 da b5 3d da d6 40 bb 80 c4 e5 3b 0a 57 8d 3d
       0.08879489 -0.0029424937 0.00701195 0.06901367
000080 39 1a 06 bf 6e 7f d8 bc 75 ae 37 3e 5b 54 19 3f
       -0.5238376 -0.02642795 0.17937644 0.5989434
000090 50 1d 8c be 0b 0a ac 3e a5 68 36 3f b1 2f 0f 3f
       -0.27366114 0.33601412 0.71253425 0.55932146
0000a0 88 7f d0 bd fd 2e 24 3f 9b b4 47 3e 6d 2e 39 3f
       -0.10180575 0.641342 0.1950249 0.72336465
0000b0 15 16 1f 3f d5 6c ee bd 7f 5e 22 40 e1 8d d1 3e
       0.6214307 -0.11641852 2.5370176 0.40928558
0000c0 79 70 02 3f 6b ac b4 bd 6d 25 3a bd 88 f6 f7 be
       0.5095287 -0.088219486 -0.04544585 -0.48430276
0000d0 5a 79 a6 bd b0 20 56 3e 0e c1 d4 bd 1c 8c c7 3a
       -0.08128615 0.20910907 -0.10388385 0.0015224251
0000e0 78 cc 2c 3f c1 34 f9 be ca 0e 23 bf fa 06 17 be
       0.67499495 -0.4867306 -0.6369444 -0.14748755
0000f0 b3 1a a6 3b f3 6c 3e 3d c0 21 cf bd 7f e6 00 bf
       0.0050691008 0.04649062 -0.10113859 -0.5035171
000100 3b 76 1b 3f a6 63 74 3e fa 49 23 bf f3 a3 51 3e
       0.6072728 0.23866138 -0.63784754 0.20472698
000110 69 53 89 bd 16 86 1c bd 56 a5 88 3d 8e b0 99 bf
       -0.06705362 -0.03821381 0.0667216 -1.2007005
000120 96 c4 00 40 99 df 21 3f d3 8e 05 bf 36 57 f0 3e
       2.0119987 0.6323181 -0.5217106 0.46941537
000130 8b e1 13 bd 3f 86 75 3e 90 db 07 40 5e 63 0b 3f
       -0.036103766 0.23976992 2.122776 0.544485
000140 f0 db 0f be 1a 66 f1 be d8 fd 03 be e6 00 e8 be
       -0.14048743 -0.4714821 -0.12889802 -0.45313185
000150 f1 ff 1e 3f d7 71 24 bf 28 68 04 be 72 e9 7d b9
       0.62109286 -0.64236206 -0.12930357 -0.00024214925
000160 53 23 23 40 6d 67 bb bc cb 15 1a 3f f5 6f 12 be
       2.549031 -0.022876466 0.60189503 -0.1430052
000170 f0 7c 20 bf 53 b4 01 3f ff ef 76 3f 78 43 16 bd
       -0.6269064 0.5066578 0.96459955 -0.036685437
000180 0b b9 12 3d 20 44 da be bc f5 1b bf f3 cd 0f 3f
       0.035821002 -0.426301 -0.60921836 0.5617363

sigma_head.weight f4 [1, 100]
000000 2f 4f 9c bd 67 a0 9f be 68 37 14 3e 30 21 e6 3f
       -0.076322906 -0.31177065 0.14474261 1.7978878
000010 9b 8e 12 3e 2a a2 d7 bd 18 17 91 bd a9 45 b1 3d
       0.14312212 -0.10528977 -0.07084483 0.08655865
000020 d3 17 e6 3e 06 2f 49 be 45 69 ab 3e 65 6e 10 3f
       0.4494005 -0.19646844 0.33478752 0.5641845
000030 4f ef 05 3f 47 74 4a be 94 4b 13 3e 50 85 31 3d
       0.5231828 -0.19770919 0.143843 0.043340027
000040 2a 69 7f bd 52 21 b7 3f 6e 23 50 be 39 05 99 be
       -0.06235615 1.4307044 -0.20326015 -0.29886797
000050 22 8c 12 3f 23 51 c6 3f a5 79 33 be ef b8 42 be
       0.57245076 1.5493511 -0.17526872 -0.19015859
000060 ab ce 6e 3e 49 39 98 be f5 5a 9a be 97 2a 36 be
       0.23321025 -0.29731205 -0.3014752 -0.17789684
000070 bb ac 90 bd c1 d8 b2 be 47 b8 67 3d 9a 9e 50 bc
       -0.07064196 -0.34930995 0.056572225 -0.012733126
000080 30 7f da 3e e1 57 4e be 39 d5 a0 3c 04 5d 9e bd
       0.4267516 -0.2015071 0.019632922 -0.07732585
000090 a0 4b 29 bd 66 d6 cf bf f3 3e 50 3e 2e d9 b4 3f
       -0.041331887 -1.6237304 0.20336513 1.4128778
0000a0 65 96 49 be a0 5e ed 3e 88 a8 ee bf dd 78 a4 3f
       -0.19686277 0.46361256 -1.8645182 1.2849385
0000b0 d0 c6 2e bf 2b 3b 2b be 29 fe f4 3d 11 29 96 3f
       -0.68272114 -0.1672179 0.1196254 1.1731282
0000c0 ca 9b de 3e b7 fa 98 be 70 5c d8 bf 99 33 a1 be
       0.43478233 -0.2987878 -1.690321 -0.31484678
0000d0 b1 06 90 be 38 13 8e bc 98 39 ca bd dc ba 75 be
       -0.28130105 -0.017343149 -0.098742664 -0.23997062
0000e0 fe b0 00 3f ff 4b 22 3e 41 56 03 3e db aa 34 be
       0.5027007 0.15849303 0.12825872 -0.17643301
0000f0 80 04 86 bd 3f 47 87 be 15 80 3c be 00 22 e1 bd
       -0.06543827 -0.26421544 -0.18408234 -0.10992813
000100 c5 e1 f6 be bd f7 25 3d 7c 8c a5 3d c8 54 2c be
       -0.48219123 0.040519465 0.08083436 -0.16829216
000110 c7 ef 8a be b6 fb 5a be 6f 2b d1 bd b4 25 ce be
       -0.2713606 -0.21385083 -0.102133624 -0.4026314
000120 bd 59 a4 bd c4 85 b6 be 91 22 17 be 10 ec 74 be
       -0.08024929 -0.3564893 -0.1475928 -0.23918176
000130 37 de 9a be b2 91 26 3e 83 e4 0f 3f a4 51 30 3f
       -0.3024766 0.16266516 0.56208056 0.68874574
000140 ee 70 c1 bd a4 a3 64 be 4c 35 5c be 31 e5 0e bf
       -0.09445368 -0.22328049 -0.21504706 -0.5581847
000150 d6 89 61 bf 3d 04 98 3e a1 ae 6f be cb c1 7b be
       -0.88100946 0.29690734 -0.2340646 -0.24585645
000160 39 34 fb 3e f7 d1 3d 3d 74 65 49 3e 66 ca c8 bd
       0.4906328 0.046342816 0.19667608 -0.098042294
000170 65 55 7b 3e db b8 33 3f 9a 47 31 3f d9 a9 33 be
       0.24544294 0.7020394 0.6924988 -0.1754526
000180 58 2f 6a be a5 3d f3 3e ff 1d df bd 6c 39 68 3f
       -0.22869623 0.4750797 -0.10894393 0.9071262
